…
ache\": true,\n","  \"vocab_size\": 30522\n","}\n","\n"],"name":"stdout"}]},{"cell_type":"code","metadata":{"id":"xKC_QZ2pw_zY","colab":{"base_uri":"https://localhost:8080/"},"executionInfo":{"status":"ok","timestamp":1618474882342,"user_tz":-480,"elapsed":51979,"user":{"displayName":"Yik-Cheung Tam","photoUrl":"","userId":"08154216466222084578"}},"outputId":"2bff694d-cff8-4019-c4d8-d4e2a172cdad"},"source":["print(model)"],"execution_count":null,"outputs":[{"output_type":"stream","text":["BertClassifier(\n","  (_bert): BertModel(\n","    (embeddings): BertEmbeddings(\n","      (word_embeddings): Embedding(30522, 768, padding_idx=0)\n","      (position_embeddings): Embedding(512, 768)\n","      (token_type_embeddings): Embedding(2, 768)\n","      (LayerNorm): LayerNorm((768,), eps=1e-12, elementwise_affine=True)\n","      (dropout): Dropout(p=0.1, inplace=False)\n","    )\n","    (encoder): BertEncoder(\n","      (layer): ModuleList(\n","        (0): BertLayer(\n","          (attention): BertAttention(\n","            (self): BertSelfAttention(\n","              (query): Linear(in_features=768, out_features=768, bias=True)\n","              (key): Linear(in_features=768, out_features=768, bias=True)\n","              (value): Linear(in_features=768, out_features=768, bias=True)\n","              (dropout): Dropout(p=0.1, inplace=False)\n","            )\n","            (output): BertSelfOutput(\n","              (dense): Linear(in_features=768, out_features=768, bias=True)\n","              (LayerNorm): LayerNorm((768,), eps=1e-12, elementwise_affine=True)\n","              (dropout): Dropout(p=0.1, inplace=False)\n","            )\n","          )\n","          (intermediate): BertIntermediate(\n","            (dense): Linear(in_features=768, out_features=3072, bias=True)\n","          )\n","          (output): BertOutput(\n","            (dense): Linear(in_features=3072, out_features=768, bias=True)\n","            (LayerNorm): LayerNorm((768,), eps=1e-12, elementwise_affine=True)\n","            (dropout): Dropout(p=0.1, inplace=False)\n","          )\n","        )\n","        (1): BertLayer(\n","          (attention): BertAttention(\n","            (self): BertSelfAttention(\n","              (query): Linear(in_features=768, out_features=768, bias=True)\n","              (key): Linear(in_features=768, out_features=768, bias=True)\n","              (value): Linear(in_features=768, out_features=768, bias=True)\n","              (dropout): Dropout(p=0.1, inplace=False)\n","            )\n","            (output): BertSelfOutput(\n","              (dense): Linear(in_features=768, out_features=768, bias=True)\n","              (LayerNorm): LayerNorm((768,), eps=1e-12, elementwise_affine=True)\n","              (dropout): Dropout(p=0.1, inplace=False)\n","            )\n","          )\n","          (intermediate): BertIntermediate(\n","            (dense): Linear(in_features=768, out_features=3072, bias=True)\n","          )\n","          (output): BertOutput(\n","            (dense): Linear(in_features=3072, out_features=768, bias=True)\n","            (LayerNorm): LayerNorm((768,), eps=1e-12, elementwise_affine=True)\n","            (dropout): Dropout(p=0.1, inplace=False)\n","          )\n","        )\n","        (2): BertLayer(\n","          (attention): BertAttention(\n","            (self): BertSelfAttention(\n","              (query): Linear(in_features=768, out_features=768, bias=True)\n","              (key): Linear(in_features=768, out_features=768, bias=True)\n","              (value): Linear(in_features=768, out_features=768, bias=True)\n","              (dropout): Dropout(p=0.1, inplace=False)\n","            )\n","            (output): BertSelfOutput(\n","              (dense): Linear(in_features=768, out_features=768, bias=True)\n","              (LayerNorm): LayerNorm((768,), eps=1e-12, elementwise_affine=True)\n","              (dropout): Dropout(p=0.1, inplace=False)\n","            )\n","          )\n","          (intermediate): BertIntermediate(\n","            (dense): Linear(in_features=768, out_features=3072, bias=True)\n","          )\n","          (output): BertOutput(\n","            (dense): Linear(in_features=3072, out_features=768, bias=True)\n","            (LayerNorm): LayerNorm((768,), eps=1e-12, elementwise_affine=True)\n","            (dropout): Dropout(p=0.1, inplace=False)\n","          )\n","        )\n","        (3): BertLayer(\n","          (attention): BertAttention(\n","            (self): BertSelfAttention(\n","              (query): Linear(in_features=768, out_features=768, bias=True)\n","              (key): Linear(in_features=768, out_features=768, bias=True)\n","              (value): Linear(in_features=768, out_features=768, bias=True)\n","              (dropout): Dropout(p=0.1, inplace=False)\n","            )\n","            (output): BertSelfOutput(\n","              (dense): Linear(in_features=768, out_features=768, bias=True)\n","              (LayerNorm): LayerNorm((768,), eps=1e-12, elementwise_affine=True)\n","              (dropout): Dropout(p=0.1, inplace=False)\n","            )\n","          )\n","          (intermediate): BertIntermediate(\n","            (dense): Linear(in_features=768, out_features=3072, bias=True)\n","          )\n","          (output): BertOutput(\n","            (dense): Linear(in_features=3072, out_features=768, bias=True)\n","            (LayerNorm): LayerNorm((768,), eps=1e-12, elementwise_affine=True)\n","            (dropout): Dropout(p=0.1, inplace=False)\n","          )\n","        )\n","        (4): BertLayer(\n","          (attention): BertAttention(\n","            (self): BertSelfAttention(\n","              (query): Linear(in_features=768, out_features=768, bias=True)\n","              (key): Linear(in_features=768, out_features=768, bias=True)\n","              (value): Linear(in_features=768, out_features=768, bias=True)\n","              (dropout): Dropout(p=0.1, inplace=False)\n","            )\n","            (output): BertSelfOutput(\n","              (dense): Linear(in_features=768, out_features=768, bias=True)\n","              (LayerNorm): LayerNorm((768,), eps=1e-12, elementwise_affine=True)\n","              (dropout): Dropout(p=0.1, inplace=False)\n","            )\n","          )\n","          (intermediate): BertIntermediate(\n","            (dense): Linear(in_features=768, out_features=3072, bias=True)\n","          )\n","          (output): BertOutput(\n","            (dense): Linear(in_features=3072, out_features=768, bias=True)\n","            (LayerNorm): LayerNorm((768,), eps=1e-12, elementwise_affine=True)\n","            (dropout): Dropout(p=0.1, inplace=False)\n","          )\n","        )\n","        (5): BertLayer(\n","          (attention): BertAttention(\n","            (self): BertSelfAttention(\n","              (query): Linear(in_features=768, out_features=768, bias=True)\n","              (key): Linear(in_features=768, out_features=768, bias=True)\n","              (value): Linear(in_features=768, out_features=768, bias=True)\n","              (dropout): Dropout(p=0.1, inplace=False)\n","            )\n","            (output): BertSelfOutput(\n","              (dense): Linear(in_features=768, out_features=768, bias=True)\n","              (LayerNorm): LayerNorm((768,), eps=1e-12, elementwise_affine=True)\n","              (dropout): Dropout(p=0.1, inplace=False)\n","            )\n","          )\n","          (intermediate): BertIntermediate(\n","            (dense): Linear(in_features=768, out_features=3072, bias=True)\n","          )\n","          (output): BertOutput(\n","            (dense): Linear(in_features=3072, out_features=768, bias=True)\n","            (LayerNorm): LayerNorm((768,), eps=1e-12, elementwise_affine=True)\n","            (dropout): Dropout(p=0.1, inplace=False)\n","          )\n","        )\n","        (6): BertLayer(\n","          (attention): BertAttention(\n","            (self): BertSelfAttention(\n","              (query): Linear(in_features=768, out_features=768, bias=True)\n","              (key): Linear(in_features=768, out_features=768, bias=True)\n","              (value): Linear(in_features=768, out_features=768, bias=True)\n","              (dropout): Dropout(p=0.1, inplace=False)\n","            )\n","            (output): BertSelfOutput(\n","              (dense): Linear(in_features=768, out_features=768, bias=True)\n","              (LayerNorm): LayerNorm((768,), eps=1e-12, elementwise_affine=True)\n","              (dropout): Dropout(p=0.1, inplace=False)\n","            )\n","          )\n","          (intermediate): BertIntermediate(\n","            (dense): Linear(in_features=768, out_features=3072, bias=True)\n","          )\n","          (output): BertOutput(\n","            (dense): Linear(in_features=3072, out_features=768, bias=True)\n","            (LayerNorm): LayerNorm((768,), eps=1e-12, elementwise_affine=True)\n","            (dropout): Dropout(p=0.1, inplace=False)\n","          )\n","        )\n","        (7): BertLayer(\n","          (attention): BertAttention(\n","            (self): BertSelfAttention(\n","              (query): Linear(in_features=768, out_features=768, bias=True)\n","              (key): Linear(in_features=768, out_features=768, bias=True)\n","              (value): Linear(in_features=768, out_features=768, bias=True)\n","              (dropout): Dropout(p=0.1, inplace=False)\n","            )\n","            (output): BertSelfOutput(\n","              (dense): Linear(in_features=768, out_features=768, bias=True)\n","              (LayerNorm): LayerNorm((768,), eps=1e-12, elementwise_affine=True)\n","              (dropout): Dropout(p=0.1, inplace=False)\n","            )\n","          )\n","          (intermediate): BertIntermediate(\n","            (dense): Linear(in_features=768, out_features=3072, bias=True)\n","          )\n","          (output): BertOutput(\n","            (dense): Linear(in_features=3072, out_features=768, bias=True)\n","            (LayerNorm): LayerNorm((768,), eps=1e-12, elementwise_affine=True)\n","            (dropout): Dropout(p=0.1, inplace=False)\n","          )\n","        )\n","        (8): BertLayer(\n","          (attention): BertAttention(\n","            (self): BertSelfAttention(\n","              (query): Linear(in_features=768, out_features=768, bias=True)\n","              (key): Linear(in_features=768, out_features=768, bias=True)\n","              (value): Linear(in_features=768, out_features=768, bias=True)\n","              (dropout): Dropout(p=0.1, inplace=False)\n","            )\n","            (output): BertSelfOutput(\n","              (dense): Linear(in_features=768, out_features=768, bias=True)\n","              (LayerNorm): LayerNorm((768,), eps=1e-12, elementwise_affine=True)\n","              (dropout): Dropout(p=0.1, inplace=False)\n","            )\n","          )\n","          (intermediate): BertIntermediate(\n","            (dense): Linear(in_features=768, out_features=3072, bias=True)\n","          )\n","          (output): BertOutput(\n","            (dense): Linear(in_features=3072, out_features=768, bias=True)\n","            (LayerNorm): LayerNorm((768,), eps=1e-12, elementwise_affine=True)\n","            (dropout): Dropout(p=0.1, inplace=False)\n","          )\n","        )\n","        (9): BertLayer(\n","          (attention): BertAttention(\n","            (self): BertSelfAttention(\n","              (query): Linear(in_features=768, out_features=768, bias=True)\n","              (key): Linear(in_features=768, out_features=768, bias=True)\n","              (value): Linear(in_features=768, out_features=768, bias=True)\n","              (dropout): Dropout(p=0.1, inplace=False)\n","            )\n","            (output): BertSelfOutput(\n","              (dense): Linear(in_features=768, out_features=768, bias=True)\n","              (LayerNorm): LayerNorm((768,), eps=1e-12, elementwise_affine=True)\n","              (dropout): Dropout(p=0.1, inplace=False)\n","            )\n","          )\n","          (intermediate): BertIntermediate(\n","            (dense): Linear(in_features=768, out_features=3072, bias=True)\n","          )\n","          (output): BertOutput(\n","            (dense): Linear(in_features=3072, out_features=768, bias=True)\n","            (LayerNorm): LayerNorm((768,), eps=1e-12, elementwise_affine=True)\n","            (dropout): Dropout(p=0.1, inplace=False)\n","          )\n","        )\n","        (10): BertLayer(\n","          (attention): BertAttention(\n","            (self): BertSelfAttention(\n","              (query): Linear(in_features=768, out_features=768, bias=True)\n","              (key): Linear(in_features=768, out_features=768, bias=True)\n","              (value): Linear(in_features=768, out_features=768, bias=True)\n","              (dropout): Dropout(p=0.1, inplace=False)\n","            )\n","            (output): BertSelfOutput(\n","              (dense): Linear(in_features=768, out_features=768, bias=True)\n","              (LayerNorm): LayerNorm((768,), eps=1e-12, elementwise_affine=True)\n","              (dropout): Dropout(p=0.1, inplace=False)\n","            )\n","          )\n","          (intermediate): BertIntermediate(\n","            (dense): Linear(in_features=768, out_features=3072, bias=True)\n","          )\n","          (output): BertOutput(\n","            (dense): Linear(in_features=3072, out_features=768, bias=True)\n","            (LayerNorm): LayerNorm((768,), eps=1e-12, elementwise_affine=True)\n","            (dropout): Dropout(p=0.1, inplace=False)\n","          )\n","        )\n","        (11): BertLayer(\n","          (attention): BertAttention(\n","            (self): BertSelfAttention(\n","              (query): Linear(in_features=768, out_features=768, bias=True)\n","              (key): Linear(in_features=768, out_features=768, bias=True)\n","              (value): Linear(in_features=768, out_features=768, bias=True)\n","              (dropout): Dropout(p=0.1, inplace=False)\n","            )\n","            (output): BertSelfOutput(\n","              (dense): Linear(in_features=768, out_features=768, bias=True)\n","              (LayerNorm): LayerNorm((768,), eps=1e-12, elementwise_affine=True)\n","              (dropout): Dropout(p=0.1, inplace=False)\n","            )\n","          )\n","          (intermediate): BertIntermediate(\n","            (dense): Linear(in_features=768, out_features=3072, bias=True)\n","          )\n","          (output): BertOutput(\n","            (dense): Linear(in_features=3072, out_features=768, bias=True)\n","            (LayerNorm): LayerNorm((768,), eps=1e-12, elementwise_affine=True)\n","            (dropout): Dropout(p=0.1, inplace=False)\n","          )\n","        )\n","      )\n","    )\n","  )\n","  (_pooler): Linear(in_features=768, out_features=768, bias=True)\n","  (_activation): Tanh()\n","  (_dropout): Dropout(p=0.1, inplace=False)\n","  (_classifier): Linear(in_features=768, out_features=2, bias=True)\n",")\n"],"name":"stdout"}]},{"cell_type":"markdown","metadata":{"id":"VmGjZiTpz_5P"},"source":["### Demo to obtain model parameters from state dict"]},{"cell_type":"code","metadata":{"id":"OTWIXLUEyeEO","colab":{"base_uri":"https://localhost:8080/"},"executionInfo":{"status":"ok","timestamp":1618474884163,"user_tz":-480,"elapsed":53790,"user":{"displayN
…
ig)"],"execution_count":null,"outputs":[]},{"cell_type":"code","metadata":{"id":"1qM6tagdKQav","colab":{"base_uri":"https://localhost:8080/"},"executionInfo":{"status":"ok","timestamp":1618474889788,"user_tz":-480,"elapsed":59335,"user":{"displayName":"Yik-Cheung Tam","photoUrl":"","userId":"08154216466222084578"}},"outputId":"47b965ba-ba4d-4609-87a1-f799e5e58d42"},"source":["# see what is inside. Better check out documentation from Huggingface\n","print(gpt_model)"],"execution_count":null,"outputs":[{"output_type":"stream","text":["GPT2LMHeadModel(\n","  (transformer): GPT2Model(\n","    (wte): Embedding(20001, 768)\n","    (wpe): Embedding(1024, 768)\n","    (drop): Dropout(p=0.1, inplace=False)\n","    (h): ModuleList(\n","      (0): Block(\n","        (ln_1): LayerNorm((768,), eps=1e-05, elementwise_affine=True)\n","        (attn): Attention(\n","          (c_attn): Conv1D()\n","          (c_proj): Conv1D()\n","          (attn_dropout): Dropout(p=0.1, inplace=False)\n","          (resid_dropout): Dropout(p=0.1, inplace=False)\n","        )\n","        (ln_2): LayerNorm((768,), eps=1e-05, elementwise_affine=True)\n","        (mlp): MLP(\n","          (c_fc): Conv1D()\n","          (c_proj): Conv1D()\n","          (dropout): Dropout(p=0.1, inplace=False)\n","        )\n","      )\n","      (1): Block(\n","        (ln_1): LayerNorm((768,), eps=1e-05, elementwise_affine=True)\n","        (attn): Attention(\n","          (c_attn): Conv1D()\n","          (c_proj): Conv1D()\n","          (attn_dropout): Dropout(p=0.1, inplace=False)\n","          (resid_dropout): Dropout(p=0.1, inplace=False)\n","        )\n","        (ln_2): LayerNorm((768,), eps=1e-05, elementwise_affine=True)\n","        (mlp): MLP(\n","          (c_fc): Conv1D()\n","          (c_proj): Conv1D()\n","          (dropout): Dropout(p=0.1, inplace=False)\n","        )\n","      )\n","      (2): Block(\n","        (ln_1): LayerNorm((768,), eps=1e-05, elementwise_affine=True)\n","        (attn): Attention(\n","          (c_attn): Conv1D()\n","          (c_proj): Conv1D()\n","          (attn_dropout): Dropout(p=0.1, inplace=False)\n","          (resid_dropout): Dropout(p=0.1, inplace=False)\n","        )\n","        (ln_2): LayerNorm((768,), eps=1e-05, elementwise_affine=True)\n","        (mlp): MLP(\n","          (c_fc): Conv1D()\n","          (c_proj): Conv1D()\n","          (dropout): Dropout(p=0.1, inplace=False)\n","        )\n","      )\n","      (3): Block(\n","        (ln_1): LayerNorm((768,), eps=1e-05, elementwise_affine=True)\n","        (attn): Attention(\n","          (c_attn): Conv1D()\n","          (c_proj): Conv1D()\n","          (attn_dropout): Dropout(p=0.1, inplace=False)\n","          (resid_dropout): Dropout(p=0.1, inplace=False)\n","        )\n","        (ln_2): LayerNorm((768,), eps=1e-05, elementwise_affine=True)\n","        (mlp): MLP(\n","          (c_fc): Conv1D()\n","          (c_proj): Conv1D()\n","          (dropout): Dropout(p=0.1, inplace=False)\n","        )\n","      )\n","      (4): Block(\n","        (ln_1): LayerNorm((768,), eps=1e-05, elementwise_affine=True)\n","        (attn): Attention(\n","          (c_attn): Conv1D()\n","          (c_proj): Conv1D()\n","          (attn_dropout): Dropout(p=0.1, inplace=False)\n","          (resid_dropout): Dropout(p=0.1, inplace=False)\n","        )\n","        (ln_2): LayerNorm((768,), eps=1e-05, elementwise_affine=True)\n","        (mlp): MLP(\n","          (c_fc): Conv1D()\n","          (c_proj): Conv1D()\n","          (dropout): Dropout(p=0.1, inplace=False)\n","        )\n","      )\n","      (5): Block(\n","        (ln_1): LayerNorm((768,), eps=1e-05, elementwise_affine=True)\n","        (attn): Attention(\n","          (c_attn): Conv1D()\n","          (c_proj): Conv1D()\n","          (attn_dropout): Dropout(p=0.1, inplace=False)\n","          (resid_dropout): Dropout(p=0.1, inplace=False)\n","        )\n","        (ln_2): LayerNorm((768,), eps=1e-05, elementwise_affine=True)\n","        (mlp): MLP(\n","          (c_fc): Conv1D()\n","          (c_proj): Conv1D()\n","          (dropout): Dropout(p=0.1, inplace=False)\n","        )\n","      )\n","      (6): Block(\n","        (ln_1): LayerNorm((768,), eps=1e-05, elementwise_affine=True)\n","        (attn): Attention(\n","          (c_attn): Conv1D()\n","          (c_proj): Conv1D()\n","          (attn_dropout): Dropout(p=0.1, inplace=False)\n","          (resid_dropout): Dropout(p=0.1, inplace=False)\n","        )\n","        (ln_2): LayerNorm((768,), eps=1e-05, elementwise_affine=True)\n","        (mlp): MLP(\n","          (c_fc): Conv1D()\n","          (c_proj): Conv1D()\n","          (dropout): Dropout(p=0.1, inplace=False)\n","        )\n","      )\n","      (7): Block(\n","        (ln_1): LayerNorm((768,), eps=1e-05, elementwise_affine=True)\n","        (attn): Attention(\n","          (c_attn): Conv1D()\n","          (c_proj): Conv1D()\n","          (attn_dropout): Dropout(p=0.1, inplace=False)\n","          (resid_dropout): Dropout(p=0.1, inplace=False)\n","        )\n","        (ln_2): LayerNorm((768,), eps=1e-05, elementwise_affine=True)\n","        (mlp): MLP(\n","          (c_fc): Conv1D()\n","          (c_proj): Conv1D()\n","          (dropout): Dropout(p=0.1, inplace=False)\n","        )\n","      )\n","      (8): Block(\n","        (ln_1): LayerNorm((768,), eps=1e-05, elementwise_affine=True)\n","        (attn): Attention(\n","          (c_attn): Conv1D()\n","          (c_proj): Conv1D()\n","          (attn_dropout): Dropout(p=0.1, inplace=False)\n","          (resid_dropout): Dropout(p=0.1, inplace=False)\n","        )\n","        (ln_2): LayerNorm((768,), eps=1e-05, elementwise_affine=True)\n","        (mlp): MLP(\n","          (c_fc): Conv1D()\n","          (c_proj): Conv1D()\n","          (dropout): Dropout(p=0.1, inplace=False)\n","        )\n","      )\n","      (9): Block(\n","        (ln_1): LayerNorm((768,), eps=1e-05, elementwise_affine=True)\n","        (attn): Attention(\n","          (c_attn): Conv1D()\n","          (c_proj): Conv1D()\n","          (attn_dropout): Dropout(p=0.1, inplace=False)\n","          (resid_dropout): Dropout(p=0.1, inplace=False)\n","        )\n","        (ln_2): LayerNorm((768,), eps=1e-05, elementwise_affine=True)\n","        (mlp): MLP(\n","          (c_fc): Conv1D()\n","          (c_proj): Conv1D()\n","          (dropout): Dropout(p=0.1, inplace=False)\n","        )\n","      )\n","      (10): Block(\n","        (ln_1): LayerNorm((768,), eps=1e-05, elementwise_affine=True)\n","        (attn): Attention(\n","          (c_attn): Conv1D()\n","          (c_proj): Conv1D()\n","          (attn_dropout): Dropout(p=0.1, inplace=False)\n","          (resid_dropout): Dropout(p=0.1, inplace=False)\n","        )\n","        (ln_2): LayerNorm((768,), eps=1e-05, elementwise_affine=True)\n","        (mlp): MLP(\n","          (c_fc): Conv1D()\n","          (c_proj): Conv1D()\n","          (dropout): Dropout(p=0.1, inplace=False)\n","        )\n","      )\n","      (11): Block(\n","        (ln_1): LayerNorm((768,), eps=1e-05, elementwise_affine=True)\n","        (attn): Attention(\n","          (c_attn): Conv1D()\n","          (c_proj): Conv1D()\n","          (attn_dropout): Dropout(p=0.1, inplace=False)\n","          (resid_dropout): Dropout(p=0.1, inplace=False)\n","        )\n","        (ln_2): LayerNorm((768,), eps=1e-05, elementwise_affine=True)\n","        (mlp): MLP(\n","          (c_fc): Conv1D()\n","          (c_proj): Conv1D()\n","          (dropout): Dropout(p=0.1, inplace=False)\n","        )\n","      )\n","    )\n","    (ln_f): LayerNorm((768,), eps=1e-05, elementwise_affine=True)\n","  )\n","  (lm_head): Linear(in_features=768, out_features=20001, bias=False)\n",")\n"],"name":"stdout"}]},{"cell_type":"markdown","metadata":{"id":"AExSN61f2t1T"},"source":["You see that the lm_head to predict the next word now has 20001 output vocabulary for prediction."]},{"cell_type":"code","metadata":{"id":"D--KUHke2pj9"},"source":[""],"execution_count":null,"outputs":[]}]}